services/content_recommendation/ml/artifacts/item_tower.pth (torch, 100541 bytes, 2 tensors)

fc.weight f4 [64, 384]
00000000: 7899 de3c fcc0 efbc 5be2 583d 47dd 80bc
00000010: e3a3 f1bc 451d 283d 8cc5 85bc d287 103d
00000020: ecf6 49bc 1626 3bbd 424d bbbc f102 cebc
00000030: e6b7 2bbd c281 8f3c fb44 013b 487b 52bc
00000040: 5f76 c53c b1dc ee3c 233c 8d3c f025 9c3c
00000050: 919f 8a3c 36b9 74bc 3ec1 a43c 18cb 6d3c
00000060: acc5 d7bc 4e09 36bd 0e1c 39bc 6e7d e13c
00000070: d256 383d d900 b53c 4740 e9bc c83d beba
00000080: 72e4 1fbd a42b 3a3d 7108 25bd b783 5dbc
00000090: 93d2 3c3d b88c fe3c 858e 57bd accc dcbc
000000a0: 7f09 1dbd 3a92 46bd 4865 7abc 2933 6d3c
000000b0: f237 d43c c0ab cabc 9f1d 29bd 9730 e4bb
000000c0: 5e74 fbbc d111 1c3c 1f00 373c 42a2 1d3c
000000d0: 3b45 8abc 599f 243d db31 bf3c f20b 313c
000000e0: 3d95 533c 39fd 333d 8ebd 44bd 9ea6 263c
000000f0: 1283 07bd ed5c adbc 803e a13c 500b 503b
00000100: 62e6 b1bc 35bb 14bc ab9b 88bb 6648 a3bc
00000110: 58d5 333d a5ab 923c 4454 67bc 2d94 23bd
00000120: 1cec 16bd 6256 b23a aea1 d8bc 095a 823b
00000130: 53c7 513d 59d7 1b3c 4668 f73c a683 3e3c
00000140: c840 ac3c 9e65 2ebc 7985 f63c 00a6 54bd
00000150: fd18 333d feea b83b 736a 9cbc fcf2 193d
00000160: b96e b6bc ca6e b73c 467c 283d 3f1f fb3c
00000170: 05a4 17bc af97 0dbd 918d d03c 7fe5 c23c
00000180: 5dd6 b8bc b8b7 54bd 280a ebb8 e517 f6bb
00000190: a92e 36bd 6263 d0bc 3312 10bc ee4a 9fbb
000001a0: 3760 37bd 9af7 60bc 2c0d 39bd ea6f 3abd
000001b0: 06d2 a53c 800e 5dbd b392 053d b11d be3a
000001c0: 1693 433c 764c 8e3c da93 41bd 804b a43c
000001d0: 86e1 31bd f4ed f9bc 2bfb 923b 3e0c 2e3d
000001e0: 2547 b03c 2076 46bc d075 3a3d 8759 98bc
000001f0: 2f65 4bbc 8fb1 58bd ad03 53ba 4721 273d
00000200: c989 48bd aaf4 3abd 9393 02bc e992 92bc
00000210: 64b6 2dbd 315e e83b 55e6 0e3d 8273 503c
00000220: 3835 4f3c 7d83 ffbb 6c0f 30bc 2a52 af3b
00000230: e5a8 38bd c1c7 063d 9c3b fd3c 298b 49bd
00000240: 5e9f d43c 0dc9 e43c 942b 483d c18d 633d
00000250: c5f2 46bc 1329 09bd 86a2 3abd 767d 38bd
00000260: 14d5 be3b 70eb f33b d663 01bc 45d6 93bc
00000270: 590c 073d 48a5 19bd d910 0dbd 8ce9 7cbc
00000280: c919 543c f9cf c93c 3aba 3c3c b7ff fabc
00000290: bf53 eabc 8c96 16bc 1043 05bd 57fb f53b
000002a0: 7e20 a6bc 2f29 ca3c 167c c03c 2a52 a4bb
000002b0: ac93 3c3d 91bf 583d b099 2a3d 5fc6 2c3d
000002c0: 6981 033d 95ef 103d c524 37bd e400 263d
000002d0: 591e cdbc 89dc 103d 47ae 053d 2502 0c3d
000002e0: 7afe c83c e06f ed3c fc25 45bd 915f aa3c
000002f0: 808c 0ebc 5e6d c73c 11e9 0a3d a72e 02bd
00000300: 1682 a8bc bcc1 98bc e7a9 2bbd 2902 4cbc
00000310: 8a5c 5f3b b4a2 da3a 86ef f03b d9ba 37bc
00000320: d13f b23c 87a1 a3bc 8977 15bd aaa0 9cbc
00000330: c74f 133d 5682 96bb 2fcd ef3b 75d3 a23c
00000340: d049 40bd 5d30 f1bb ba16 a7bb cb40 263d
00000350: 912d 0f3d 3dc5 f6bc 7a23 023c 534b f43b
00000360: 32aa 1fbd 40aa 8c3c 6b9c a83c 95ea 5a3d
00000370: 8dca cd3c ded2 2f3d 325d ccbc ad49 803c
00000380: 533e 7c3c d449 e2bb c0ee c4bc a594 5a3c
00000390: 11e5 24bd 3703 57bc 1fae 313d 336c 24bd
000003a0: 3189 9ebc 7e76 04bd 4755 84bc bb45 a5bc
000003b0: 50b6 1e3b 8c92 1fbd 582d 1cbd 5fe2 acbc
000003c0: db6f 663c 840c c03c 6804 1a3a cacf fb3c
000003d0: 9150 f73c 8398 cd3c f904 b0bb 4bc5 b33b
000003e0: eed3 eabc 3a2c 833c 9e93 a53b 9ad5 003d
000003f0: d650 f03b dbae e83c b653 87bc b4c2 bf3c
0.027172789 -0.029266827 0.052950244 -0.015730513 -0.029497093 0.04104354 -0.01632955 0.03528578
-0.012326937 -0.04569062 -0.022863988 -0.025147887 -0.041923426 0.017517928 0.0019724953 -0.012846775
0.024104295 0.029157968 0.01724059 0.019061059 0.01692179 -0.014936736 0.020111676 0.014513753
-0.026339374 -0.044442467 -0.011298193 0.02752563 0.045004673 0.02209513 -0.028473033 -0.0014514262
-0.03903622 0.045451775 -0.040291253 -0.013520173 0.046099257 0.03107296 -0.05262615 -0.026953064
-0.038339134 -0.048479296 -0.015282936 0.01447753 0.025905583 -0.0247401 -0.041288015 -0.0069638
-0.030695137 0.009525732 0.011169462 0.009621205 -0.016878715 0.04019103 0.023339203 0.010806071
0.012913999 0.043942664 -0.048032336 0.010171561 -0.033083983 -0.021162475 0.019683123 0.0031745024
-0.0217163 -0.009077837 -0.0041689477 -0.019931983 0.043904632 0.017904112 -0.014119212 -0.039936233
-0.036846265 0.0013606066 -0.026444282 0.003978018 0.05121548 0.009511792 0.030201089 0.011628067
0.021026984 -0.010644345 0.030092942 -0.051916122 0.043725003 0.0056432476 -0.019093728 0.037585244
-0.022269594 0.022391696 0.04113414 0.030654548 -0.009255414 -0.034568485 0.02545813 0.023791073
-0.022563154 -0.05193302 -0.00011207565 -0.0075101727 -0.044478092 -0.025438014 -0.0087934015 -0.0048612272
-0.044769492 -0.013730908 -0.045178577 -0.045516886 0.020241749 -0.053968906 0.032610606 0.0014504698
0.0119369235 0.017370444 -0.047260143 0.020055532 -0.043427967 -0.030508973 0.004485508 0.042492144
0.0215183 -0.012113124 0.04552251 -0.018597377 -0.012414261 -0.052903708 -0.0008049559 0.04080322
-0.048959527 -0.045643486 -0.007969755 -0.017892318 -0.04241027 0.0070913066 0.03488763 0.012722852
0.012646966 -0.007797657 -0.010745864 0.005350371 -0.045082945 0.032905344 0.030912213 -0.04920498
0.025954898 0.0279279 0.048869684 0.05555511 -0.012142842 -0.033486437 -0.04556515 -0.045041524
0.0058237407 0.007443838 -0.007897338 -0.018046508 0.03297076 -0.03751114 -0.034439895 -0.015436541
0.012945601 0.024635302 0.011519009 -0.030639512 -0.028604386 -0.009191167 -0.03253466 0.0075067687
-0.020279165 0.024677841 0.023496669 -0.0050146775 0.04603927 0.052917067 0.041650474 0.04218137
0.032105837 0.035384733 -0.0447128 0.040528193 -0.025038885 0.03536657 0.032636907 0.034181733
0.024535406 0.02898401 -0.048131928 0.020797523 -0.00870049 0.024344143 0.033913676 -0.031782772
-0.020569842 -0.018647067 -0.04191008 -0.012451687 0.0034082257 0.0016680569 0.007352772 -0.011213982
0.021758946 -0.019974483 -0.03649095 -0.01911958 0.035964753 -0.004593174 0.007318161 0.019876221
-0.046945393 -0.0073605017 -0.0050991448 0.040589135 0.034955565 -0.030123347 0.007943029 0.0074552684
-0.03898067 0.017171025 0.020582398 0.05344637 0.025120998 0.042925708 -0.024946783 0.015660131
0.015395719 -0.0069057737 -0.024039626 0.013341104 -0.040257517 -0.013123325 0.043378945 -0.04014225
-0.019352527 -0.032339565 -0.016153945 -0.020174852 0.0024217553 -0.038958117 -0.03812918 -0.021104036
0.014064754 0.023443468 0.00058752904 0.03073873 0.030189784 0.025097137 -0.0053716865 0.0054861656
-0.02866551 0.0160123 0.0050529977 0.031453706 0.007333855 0.02840369 -0.016519409 0.023408271

fc.bias f4 [64]
00000000: 806a 89bc b84f 1f3d 0ada f73c dcda 47bd
00000010: 70f0 c33c d9cc 85bb cf98 81bb 7a39 16bd
00000020: fdbe cc3c dcd6 903c d823 cbbc e723 a43c
00000030: ad55 113d 0c96 433d 74d4 1ebd 0eef 2dbd
00000040: 3e46 103d 8322 843c 3f20 e13c eacd 5a3c
00000050: 2b7c 4e3d 5dc6 12bd d480 473d 6bb2 843c
00000060: e1db 343d 827c 19bd a813 ae3c a137 e23c
00000070: 0506 00bd 6dfa 4cbd 5e0e 7f3c 8273 f63b
00000080: b760 ae3c 5648 2e3d 4e7a aa3c f48f 39bc
00000090: 0518 bcbb 179f 363d 971d 09bd 6894 abbb
000000a0: cd18 d2bc 62f3 cc3c 1272 a33c 5d03 afbb
000000b0: 138a 4e3b 7cfe 423c ee73 443c 0c3a 22bd
000000c0: 7d91 44bd 0d09 b9b9 deb9 56bc d147 27bb
000000d0: 2907 e8bb 3b14 2fbd 0dec 8fbc 1b6e c7bb
000000e0: eafa 34bd 2a36 d4bb ad6e 1f3d a02e 183d
000000f0: 60f4 363d 0d9a 19bd c238 20bd 4016 c83b
-0.016774416 0.038894385 0.030255336 -0.048792705 0.02391836 -0.0040832576 -0.003954984 -0.036675908
0.024993414 0.017680578 -0.024797365 0.02003665 0.035482097 0.047750518 -0.03877683 -0.04246431
0.03522324 0.016129738 0.027481196 0.013354758 0.050411385 -0.035833705 0.048706844 0.016198358
0.044155005 -0.037472256 0.021249607 0.027614417 -0.03125574 -0.050043512 0.01556739 0.007521094
0.021286352 0.042549454 0.020810273 -0.011325825 -0.005740168 0.044585314 -0.033475485 -0.0052361973
-0.025646592 0.025018398 0.019951854 -0.005340977 0.0031515404 0.011901494 0.01199053 -0.03960614
-0.04799031 -0.00035292693 -0.013105838 -0.0025524984 -0.0070809317 -0.042743903 -0.017568612 -0.0060861236
-0.044184603 -0.0064761834 0.038923908 0.03715384 0.044666648 -0.03750043 -0.03911663 0.006106168
