services/content_recommendation/ml/artifacts/item_tower.pth (torch, 100541 bytes, 2 tensors)

fc.weight f4 [64, 384]
00000000: 8117 f5bc b3d3 debc b2eb 473d b0fe 9cbc
00000010: 4c72 963c c6e8 383c 97af d8bc 05b2 48bd
00000020: e643 33bd 8d36 1dbd 9034 27bd 83b7 a13c
00000030: 8225 28bd 58ba 50bd c987 383d 7a03 e2bc
00000040: 8aa0 3dbd cc6b df3c e913 e93c ae64 4fbc
00000050: c6f0 c43c cf4e 253d 5be3 243d 3527 69bc
00000060: 921d 9339 e488 0b3d 3d87 31bd 611a f63c
00000070: 57e2 9bbc 9fa6 a53c 01be 183c e72e 63bc
00000080: 2f46 02bd 169d 553d e3c5 893c 678b 4a3d
00000090: 3800 05bd b265 fcbc 77c7 033c e35f e4bc
000000a0: 6f25 283d 4c2a 803c 2aad 5a3d e15e b2bc
000000b0: 1246 1a3d 2a34 703b 02b9 363d a532 453c
000000c0: 27fe 143d 0c8e a3bc fcde 6c3c b1a2 efbb
000000d0: f607 3bbc b419 c33c 5f0c df3c 067f 3bbd
000000e0: 154b 383d a098 48bd 52a3 febb 35db 1abd
000000f0: 77c5 313d a5f5 6ebc 85a2 a13c 510e 44bd
00000100: 8b9c aebc 628d 3f3c 66cd 49bd 3ce0 c53c
00000110: 78bb 903b 70c2 573d 080f 06bd 335e 5b3d
00000120: 2676 0a3c 454d ea3b a018 2d3d e711 143d
00000130: 7c77 17bd 5087 5ebb 2a6c 063d 87e1 3abd
00000140: dc8f d03b f9df 2bbd 4d13 15bd c7f7 203d
00000150: bc89 173d 1d49 b83c 4d2d cbba 9ce9 443c
00000160: 11ff febc 6ea3 493b 489a 2dbd 5255 ee3c
00000170: f296 fdbc 6e33 cfba 0b1c ae3b 7b3b f73c
00000180: d3c9 d8bc 8c8a 303d a518 063c 9c71 35bd
00000190: f1cf 15bd fde2 c5bb 8170 0fbc aac2 403c
000001a0: 789c e3bb 4739 0f3d 9317 04bd 29f3 d8bc
000001b0: 1b35 3a3d 60e9 27bd 3e43 cfbc 1b87 8abc
000001c0: 962c febc f8cb 1f3d 4069 efbc 428e b93c
000001d0: 824c 1bbd 5c4e 10bc b91f 4bbd 3a2d daba
000001e0: 7487 08bd 508f 72bc f998 833c 4be1 933b
000001f0: f099 533c bc2d 53bc d23d acbc 1400 41bd
00000200: 8e46 9bbc 79bb 3abd ad6e 1b3d 199e a93c
00000210: 4ad2 a33b 6938 55bc f1ba 7c3c 0e78 563b
00000220: 6a92 cb3c a5d7 843b 656e 1e3d 5d85 753a
00000230: 0f93 bebb 80e3 30bd 3a2e 243d a045 253d
00000240: 0ed5 f03c e805 343d d477 2e3d 1f40 4dbd
00000250: 6ea6 d2bc 38db 9c3c 1c3d af3c 5af6 72bc
00000260: e06c 2f3d 0bf5 913c cd74 fa3c 1492 43bd
00000270: 4447 863c 54b9 a43b a6b8 5ebd 9eac 04bd
00000280: 270e 193c d44a 9a3c 5e5f 4cbc 7561 4ebc
00000290: 4eb0 14bb ee4f 703c c2a8 cbbc 6dbd 96bb
000002a0: 6ee2 a6bc af94 babc 54c8 bc3c 049c 7abc
000002b0: c9a1 37bc 1ced de3b 9843 593c 5732 4b3d
000002c0: d233 5f3d e8e3 44bd cc99 1f3d 6ea5 2e3d
000002d0: 15d7 d03c 12b6 9dbc f77a 1e3d a35d de3c
000002e0: 6dea 913c 4b01 28bd 80bd 273c f40c c3bc
000002f0: 11cf 33bd 4545 3d3d 8e94 263d acba 14bd
00000300: feea e23c a07f c6bc f6e6 953c b7e5 c13c
00000310: 1fc5 82bc 8e24 84bc 87fa ea3b f358 7abc
00000320: 5530 183d 63ff 0ebd 5d76 12bd 7ac8 b93b
00000330: e8e8 5fbd b623 e33c b916 b83c 3ba0 313c
00000340: dea8 8f3b 66a2 87bc c0a0 e93c 415a 7ebc
00000350: 5557 f33c b23b c63c 500a a5bc c8f8 d33b
00000360: 8f1f 0d3c 7a0b 133d a4a3 3c3d d98c 403d
00000370: 3a28 91bc 8631 863a 13e9 953c ee73 093d
00000380: 0cfc e9bc 9534 b7bc 9467 57bc bcaa 38bd
00000390: 2d70 6b3c ee38 95bc c109 c43b 3519 a23c
000003a0: a591 97bc 1c36 303d 9d1b 0aba e060 07bd
000003b0: 281e 213d cfc7 283b b894 123d f899 323d
000003c0: 8f93 69bc 79ce 0d3d 5e87 2f3c c1b0 6ebc
000003d0: a68d 5b3d bcdf 003d 3200 433d ed42 ffbc
000003e0: 7813 033d 7ee8 f73c feb9 3f3d f643 f03b
000003f0: 91ff e03c 4fdc 003d 8500 fd3b 7667 133d
-0.029918434 -0.027200555 0.04880876 -0.019164413 0.018365048 0.011285966 -0.026450915 -0.048997898
-0.043765925 -0.0383821 -0.040821612 0.019740826 -0.041051395 -0.05095896 0.04505137 -0.027589548
-0.04629568 0.027273081 0.028451877 -0.012658281 0.024040591 0.04035836 0.040255886 -0.014230539
0.00028060057 0.034066096 -0.043341864 0.030041875 -0.019028826 0.020221053 0.009322644 -0.013866163
-0.031805214 0.052151762 0.016817993 0.04944935 -0.03247091 -0.03081021 0.008043162 -0.027877754
0.041051324 0.015645169 0.0533878 -0.021773757 0.03766448 0.0036652186 0.04461003 0.012036
0.03637519 -0.019965194 0.0144574605 -0.0073130955 -0.011415472 0.023815967 0.027227579 -0.045775436
0.04499348 -0.04897368 -0.007770934 -0.03780671 0.043401208 -0.014584933 0.019730816 -0.047865216
-0.02131488 0.011691423 -0.04926815 0.024154775 0.0044168793 0.052675664 -0.03272918 0.053556632
0.00845102 0.0071503245 0.042259812 0.036149886 -0.036979184 -0.0033955164 0.032817997 -0.045625236
0.0063648056 -0.041961644 -0.03639536 0.0392988 0.036996588 0.0224958 -0.0015501172 0.012018587
-0.031127485 0.0030767578 -0.042383462 0.029093418 -0.030955765 -0.0015808174 0.0053134016 0.03017973
-0.026463425 0.04310088 0.008184587 -0.0442978 -0.03657526 -0.006039022 -0.00875485 0.0117651615
-0.0069461428 0.034966733 -0.032249045 -0.026483135 0.0454608 -0.040994048 -0.025300618 -0.016910126
-0.03102712 0.03901288 -0.029224992 0.022650842 -0.03791476 -0.008807745 -0.0495908 -0.0016645559
-0.033332303 -0.014804676 0.016064154 0.004512941 0.0129151195 -0.012889322 -0.021025572 -0.047119215
-0.018954542 -0.045588944 0.037947346 0.02070527 0.0049994336 -0.0130139375 0.01542543 0.0032725367
0.02485009 0.004054027 0.0386795 0.0009365881 -0.0058158706 -0.04318571 0.040083148 0.040349603
0.029398467 0.043950945 0.042594746 -0.05010998 -0.025714125 0.0191475 0.021391444 -0.014829243
0.04282844 0.01781704 0.030573273 -0.047746733 0.016391404 0.0050269756 -0.054375313 -0.032391183
0.009341753 0.018834509 -0.012473909 -0.012596478 -0.0022688094 0.014667494 -0.024860743 -0.004600218
-0.020371642 -0.022775976 0.023044743 -0.015295986 -0.011208006 0.006803168 0.0132607445 0.049608555
0.05449278 -0.04806891 0.03896503 0.042638235 0.025493184 -0.019251857 0.038691487 0.027144259
0.017811978 -0.041016858 0.010238051 -0.023809887 -0.043898646 0.04620864 0.040669017 -0.036310837
0.027699944 -0.024230778 0.018298607 0.023669107 -0.015963135 -0.016130712 0.0071709785 -0.015279996
0.037155468 -0.034911525 -0.03575741 0.0056696506 -0.054665476 0.02772699 0.022471773 0.010841425
0.004384144 -0.01655693 0.028519034 -0.015524448 0.02970473 0.024198387 -0.020146519 0.006468866
0.008613481 0.035899617 0.046054497 0.047009323 -0.017719377 0.0010238148 0.018299615 0.033557825
-0.028562568 -0.02236394 -0.013147254 -0.0450847 0.0143700065 -0.018215623 0.005982608 0.01978741
-0.018502066 0.043020353 -0.0005268397 -0.03305137 0.0393354 0.002575386 0.03578636 0.043603867
-0.014256372 0.034620736 0.010713426 -0.014568509 0.053601883 0.03146337 0.04760761 -0.031159842
0.03200099 0.030262228 0.046808235 0.0073323203 0.027465614 0.031460103 0.007721009 0.03598734

fc.bias f4 [64]
00000000: ba5e 393d e897 043c a2a4 e1bc 14ee 203d
00000010: 28db 1c3d 2d01 3abd 77c3 25bd 22f2 4ebd
00000020: de98 1c3d a749 183d be1f 28bd f01a debc
00000030: 1411 abbc bd1d 4dbc 448a 4c3d cae2 ddbc
00000040: 3fb8 13bc 6a76 3abd c60b 473d 5caf 0ebd
00000050: dc5f 1c3c ecab 0a3c 83c0 40bd 89d0 dc3c
00000060: 551d 1c3d f49e 2abd a0d5 cebc 8d5d 0ebb
00000070: 9ca5 f23c cf79 9cbc 2918 9cbb 79d4 e23b
00000080: 3122 adbb c6bc 48bd d666 9c3c ac06 973c
00000090: b0b3 ebbc 93f1 0e3d a15d c9bc dd19 33bd
000000a0: 0cbd 2a3d d99e 883c bdff 353d 163a 4dbd
000000b0: a31c 483d ce68 0ebc ed4b 453d beca aabc
000000c0: 985b 123d 29c5 7f3c 9823 ad3c 4e44 26bd
000000d0: 8a7e 14bd 29f6 c93c 7bf0 25bc 0709 e1bc
000000e0: 8300 63bc 010e 01bb 1d2d 433d 7395 22bd
000000f0: 4817 723c 8fcf 433d b109 3dbd 0607 06bd
0.045256354 0.008092858 -0.027544323 0.03928955 0.03829494 -0.045411278 -0.040469613 -0.050523885
0.038231723 0.037179615 -0.041045897 -0.027112454 -0.020882167 -0.012519297 0.049936548 -0.02708568
-0.009016096 -0.045523085 0.048595212 -0.034835204 0.009544339 0.008463841 -0.047058593 0.026954906
0.03811391 -0.041655496 -0.025248349 -0.002172324 0.029619984 -0.019101052 -0.0047636223 0.0069223014
-0.005283617 -0.049008153 0.019092005 0.018435799 -0.028772205 0.034898352 -0.024580779 -0.043725837
0.041684195 0.016677307 0.044433344 -0.050104223 0.048855435 -0.00869198 0.04816811 -0.020848628
0.03573188 0.0156109715 0.021135136 -0.040592484 -0.03625349 0.024653511 -0.010128136 -0.027470125
-0.0138551025 -0.0019692185 0.047650445 -0.039693307 0.0147760585 0.047805365 -0.04615182 -0.03272154
