services/content_recommendation/ml/artifacts/user_tower.pth (torch, 4542 bytes, 1 tensors)

emb.weight f4 [11, 64]
000000 6f f3 5b be 6f 25 b7 be 26 ab 6c bf 6b d1 f4 bf
       -0.21479581 -0.35770747 -0.9244865 -1.9126409
000010 07 f4 e2 3e b3 89 35 3f 60 de 99 3e eb 53 f4 3e
       0.44326803 0.7091324 0.3005247 0.47720274
000020 ca d8 1f 3f fb bf 06 3e ab 17 b6 bf 56 2f b3 bd
       0.6244017 0.13159172 -1.4225973 -0.08749263
000030 da f9 f1 3e 9e f4 d8 3f 93 48 c1 3f 6f ca f4 bf
       0.47260934 1.6949651 1.5100273 -1.9124278
000040 75 80 e4 3d 73 43 8f 3f f5 df 72 bc 7c db cf be
       0.11157314 1.1192459 -0.014823903 -0.4059714
000050 24 cd 75 bd e8 fb 95 bf 9c 5f 28 bf 36 71 70 be
       -0.06001009 -1.1717501 -0.6577089 -0.23480687
000060 86 90 37 3f f0 2f 30 bf a2 e8 13 bf 99 d8 05 40
       0.717049 -0.68823147 -0.57776845 2.091345
000070 fa fc 50 3f 05 19 32 3f 8e c6 dd bf 88 5f 43 be
       0.8163601 0.69569427 -1.7326219 -0.19079411
000080 f7 f3 c7 bf c6 5e b9 be dc aa 5a 3e e9 fe 25 bf
       -1.5621327 -0.3620512 0.2135424 -0.6484209
000090 9d 2e c5 3f 36 1c 8c bf 55 fb dd bd dc eb 0a bf
       1.540485 -1.0946109 -0.108389534 -0.5426614
0000a0 5a f2 2f bf 1d 7a 33 3f 75 d9 cb bf 0f 44 87 3d
       -0.68729174 0.70108205 -1.5925738 0.06604778
0000b0 b8 6b 25 bf dd 72 90 3e bb 12 16 bf bf f1 71 be
       -0.6461749 0.28212634 -0.5862233 -0.23627375
0000c0 09 43 d4 3f 15 f9 83 3f 80 a4 b8 3e 2c d3 99 3f
       1.6582958 1.0310389 0.36063004 1.201757
0000d0 78 d8 77 3e 14 b9 ba be f3 f6 b4 be 27 d3 c8 bf
       0.2420367 -0.36469328 -0.35344657 -1.5689439
0000e0 a6 2b 93 bf cb c1 57 3e 12 ad cb bd 9e b2 fe bf
       -1.1497695 0.2107002 -0.0994512 -1.989826
0000f0 67 3d a8 3f 99 af 0a c0 b6 02 64 bf 24 df 02 40
       1.3143739 -2.1669676 -0.89066637 2.0448694
000100 2f 28 27 bf 29 c2 73 3f 15 da a1 3e 90 03 91 3f
       -0.6529569 0.9521814 0.31611696 1.1329212
000110 ce 08 65 3f 52 b5 01 be 0c 9f 12 40 1c ec 32 3f
       0.8946656 -0.12666824 2.2909575 0.69891524
000120 d4 9e 54 bf 3d c5 bd 3f ca 45 1b 3e 05 fa 10 bf
       -0.8305485 1.4825817 0.15163341 -0.566315
000130 d1 0e 5c be 30 9a f6 bf 01 a3 e6 3e 11 70 e3 be
       -0.21490027 -1.9265804 0.45046237 -0.44421437
000140 d2 4a 1c 40 d6 e3 86 be e7 5d 93 3f 76 de 90 bf
       2.4420667 -0.263457 1.1513032 -1.131789
000150 25 45 7b 3e ce 8f 80 3f 91 79 78 be cf 43 c0 3e
       0.24538095 1.0043886 -0.24265124 0.37551734
000160 fd cd 8e 3f 19 76 5a 40 bf b1 86 3f e2 f3 49 bf
       1.1156613 3.413458 1.0522994 -0.7888776
000170 4d 50 3f 3f ef 20 73 bf ed 32 3a be a2 b1 e7 bf
       0.74731904 -0.9497213 -0.18183489 -1.8101084
000180 5e b6 07 3f d6 12 00 be 75 75 c2 bd 6f f6 ea 3d
       0.53012645 -0.12507185 -0.094950594 0.11472785
000190 da 33 e0 bf 35 6a 29 bf 8a a1 81 be 05 74 d9 3e
       -1.7515824 -0.66177684 -0.25318557 0.42471328
0001a0 b1 9e 94 be dc 0a 12 3f 34 89 f2 3a 0a d6 4c be
       -0.29027322 0.5704782 0.0018504024 -0.20003524
0001b0 49 02 59 be e8 76 ed be 8c fc b6 bf cf 80 8d 3f
       -0.21192278 -0.4637978 -1.4295821 1.1054934
0001c0 8b 2c 80 3f 12 5c 74 3f f2 fc a9 be 33 66 0c 40
       1.0013593 0.9545299 -0.33200794 2.1937377
0001d0 e3 61 ea bf a5 8c 50 3d 2c e7 00 bd 29 7a 7d bf
       -1.8311123 0.05091538 -0.031470463 -0.99014527
0001e0 61 20 87 3f bb 16 f2 3e d7 ad cf bd c9 e9 b2 3f
       1.0556756 0.47282967 -0.10140579 1.3977596
0001f0 84 46 ae bf c0 a0 10 bf 7d 98 8d bf 11 7f 83 bf
       -1.361527 -0.56495285 -1.1062161 -1.0273153
000200 c1 4a 82 bf 7d 34 1f 3e 9f 9d 12 bf 58 ae e2 3f
       -1.0179063 0.15547366 -0.5727176 1.7709455
000210 66 0b db bf 3f 0a bd 3f 29 b1 c2 bf bf 21 06 bf
       -1.7112854 1.4768752 -1.5210315 -0.5239524
000220 7a 51 10 bf 4b b1 2a c0 6e f7 c5 bf 65 88 11 be
       -0.56374323 -2.667071 -1.5466135 -0.14212187
000230 52 c9 34 3f 0e 5d da be 36 43 83 bf 9a 7e 04 3e
       0.7061969 -0.4264912 -1.0254886 0.1293892
000240 be b5 73 3f 72 96 57 bf 70 95 1d be 25 08 26 bf
       0.9519919 -0.84213936 -0.15389037 -0.6485618
000250 49 0b 86 bf 20 22 63 3f 32 1c 58 3f 85 ca e8 bf
       -1.0472194 0.88723946 0.8441802 -1.8186804
000260 0f 04 08 bf fc fc 51 bf ec eb c5 be fa 0c d9 3f
       -0.5313119 -0.8202665 -0.38656557 1.6957085
000270 20 a1 04 3e ad 90 2f 3f 8c 21 86 3f 84 54 ed be
       0.1295209 0.6858013 1.0478988 -0.46353543
000280 84 12 f0 3f 2e 6f 39 bf 17 c4 54 3f e9 19 1f be
       1.875565 -0.7243527 0.8311171 -0.15537228
000290 60 98 8d bf 16 3c 91 3f c1 a6 72 be d3 ce 36 bf
       -1.1062126 1.1346462 -0.23696424 -0.7140934
0002a0 02 b7 b0 bd 4d d5 02 bf 83 db 23 bf b2 44 9e 3e
       -0.08628656 -0.5110672 -0.64006823 0.30911785
0002b0 79 4c dc be 01 e7 38 be 00 0a e1 3e 07 22 5a bf
       -0.43027094 -0.18056871 0.43952942 -0.8520817
0002c0 bb 5c 2c 3f 6c 3f ef 3f a0 d4 8b 3d c7 f5 93 3f
       0.67328995 1.869123 0.068276644 1.155938
0002d0 02 0e de 3f 8b e1 3b 3f 4f ee 99 3e 63 b8 12 3f
       1.7348025 0.73391026 0.30064628 0.573126
0002e0 c2 8c 6e bf 0e 88 6b 3f 50 5b 45 bd 84 c7 58 bf
       -0.9318353 0.9200448 -0.048182786 -0.84679437
0002f0 3e 86 79 be f8 f5 26 3e 9c 44 80 3f df 9a ae 3e
       -0.24367616 0.16304767 1.0020938 0.34102532
000300 ec d1 cc be 8a 45 80 be 21 aa f2 bf bb 21 b4 bf
       -0.40003908 -0.25053054 -1.8958169 -1.4072794
000310 b3 84 81 3e 36 22 f6 3e a3 c3 44 3f 37 64 35 bf
       0.25296554 0.48072976 0.7686102 -0.7085604
000320 af fd 78 bf 89 34 85 3e 97 fb 1c 40 16 66 f9 3f
       -0.9726209 0.26016644 2.4528558 1.9484279
000330 69 04 e3 bd 95 71 71 bf 68 54 77 bf 62 5a 20 be
       -0.110848255 -0.9431394 -0.9661317 -0.15659478
000340 ce 6d b2 3f b3 62 ba bf 0f d4 89 bf 84 fc c9 bf
       1.393976 -1.4561371 -1.076784 -1.5780187
000350 73 b2 a7 bf 3f 32 7a be 27 52 30 3f e4 96 ca 3f
       -1.3101333 -0.2443323 0.68875355 1.5827298
000360 58 6b b8 be 30 27 b3 3f 4d e8 d3 bf 18 88 d8 3f
       -0.36019397 1.3996334 -1.6555268 1.6916533
000370 84 73 12 40 81 ec 45 3f 60 79 a6 bf 29 c8 19 3f
       2.2883005 0.77314 -1.3005791 0.60071045
000380 4d f0 8e be fe 01 79 3f 03 66 82 be 6d f2 ce bf
       -0.2791771 0.97268665 -0.25468454 -1.6167732
000390 23 2a f6 3d 41 12 70 bf a8 fe e4 bf be 59 d3 be
       0.12019756 -0.93777853 -1.7890215 -0.41279405
0003a0 7e 56 8b bc fe 14 19 3f 6c 44 2d 3e 09 e5 79 bf
       -0.017009016 0.59797657 0.16920632 -0.97615105
0003b0 69 a3 47 be 46 23 32 3e c3 23 70 3f 6d a9 21 3f
       -0.1949593 0.17396268 0.9380457 0.6314915
0003c0 53 7a b8 3e 0d 25 7d 3f 7e 19 b0 bf c6 d6 d2 bf
       0.36030826 0.9888466 -1.375778 -1.6471794
0003d0 9c 1b 40 bf 7d b9 2e 3f 35 9c e1 be 1a b5 19 3f
       -0.7504213 0.6825178 -0.4406449 0.60041964
0003e0 a1 3b bd bf c5 28 07 bf be 4a c5 bd e3 61 b1 bf
       -1.4783822 -0.52796584 -0.096333966 -1.3857998
0003f0 61 67 46 3e aa 39 86 3f c5 96 ae 3f 40 03 34 bf
       0.19375373 1.0486348 1.3639761 -0.7031746
