services/content_recommendation/ml/artifacts/user_tower.pth (torch, 4542 bytes, 1 tensors)

emb.weight f4 [11, 64]
00000000: 6072 8ebe 6db0 75bf b75e 88bf 4de1 97be
00000010: 8029 8cbd 349b f93e a7fc 8dbe 610f 3ebf
00000020: 8d72 20bf 3937 c13f 0b31 6cbc d0f5 adbc
00000030: 5bb7 e03e 9cd0 22c0 3c0f cebf d81d ae3e
00000040: 3a7b 833e add3 7a3e 14d5 0040 457a b8be
00000050: 9756 b43f c6a6 0440 3096 3ec0 5915 98be
00000060: 0b3a ba3e 2c49 26bf 6e02 293f d3e7 07c0
00000070: 2370 98bf 5a9a 093f 3e49 413f 2e46 743b
00000080: 22c6 993e 8316 2e3f cb41 553f 3b0d 06bf
00000090: 2b6a 833d dbbd f23f f62f c83e 6e45 04bf
000000a0: 75b9 0f3f 2d75 52bf 64ed 283f f812 bbbe
000000b0: 6d60 013f c4d2 16c0 aec0 1cbe 10b0 073f
000000c0: fc4f ba3d f7e5 adbe 2678 263f aec9 ff3f
000000d0: 26ea cd3f 3155 a2be 141a 4b3f 9fe8 833e
000000e0: 2939 4d3f 552b c7bf 557f 813f f9b8 b33f
000000f0: c7f9 103f a74b d53f eaab 5bbf bcd9 253b
00000100: 1185 4d3f 035e 953e 73e8 1140 be15 13c0
00000110: 5304 0fc0 9cd0 08bf 0155 93be 4e7e 96bf
00000120: 57bb f4bf 3d34 c4bf bcea 62be dae0 5a3e
00000130: 5ea6 fb3f bf06 a9bf bbe1 aa3f 4bdf ea3e
00000140: a694 66bf 433c 73bf c48e 76bf 8b9d 493f
00000150: ff61 fe3f 5043 1840 8c97 933d fda8 743e
00000160: e47c c9be 3c17 683f 621e 03bf 6b97 1140
00000170: 4a13 7bbe f06f 373e 1c0b b03f 833b 153f
00000180: 71b0 0b3f 5cba b7bf 9a9a 4e3f 5b1f 0340
00000190: 3a32 b83f b133 863e 08ba a5be 79b3 cc3e
000001a0: 90a9 80bf a92a 583e ca1c 78bf 5e45 923d
000001b0: 27ea 40bf 58da 8f3f 5e57 813f dd85 a23f
000001c0: 394a 623f a638 893d fc0c c33e 1df9 45bf
000001d0: 1a64 5f3d 0ff9 2a3f 580b 21c0 dbc5 e6bd
000001e0: 06cb a43e ecb8 613d a51b 3fbf e747 963f
000001f0: 6bc9 d3bc fb6f 3dbf e398 1cbf a86b f8bf
00000200: 3234 07bd 983a 123f 74fe 0840 9a9c aebc
00000210: 6905 97bf b983 b0be 223f f73e 5d6d b5bf
00000220: 5bc4 c4be a0fa e0bf ce05 c13f 1b19 cf3d
00000230: 5250 633e dc7a fb3d 9913 07bf 9c74 f33e
00000240: f0ca e63e 4d5e 223e 85b4 403f af08 d53e
00000250: 4bf0 abbf 15dc d23f 0d2d 71be 6939 1bbe
00000260: 3561 3abf b57a 8c3f 358b 2d3f c45f 1b3f
00000270: 58fc bb3f f13d 2d3f 293c f43e c8dd 5cbf
00000280: 16ca d93e 9053 c6bf 53d7 debf 88c6 3bbf
00000290: 8925 283e 40ae 713f 4cc4 3dbe 22ae c2be
000002a0: 0d07 29be 6309 c1bc 1ee6 6cbe fe6f db3e
000002b0: 591d 093f d445 00c0 8fca cf3f 6663 923d
000002c0: f183 0dbe 1062 cfbe ce4b 293f d738 693f
000002d0: bd63 6bbf 06b6 7a3f 0ffe b33c 4316 20bf
000002e0: 9da4 1fbe 2d95 52bd 6c48 983b a55e 563e
000002f0: b628 b1be 1712 213e 98d4 81be c7b0 d1bf
00000300: 67cb 03bf c3ff 8f3e fc9a 0b40 1890 8dbc
00000310: 0514 a13f d9b2 21c0 912c e83f 5d69 02bf
00000320: 415c ba3c e763 85bf a88d 523f 06e1 b7bf
00000330: 5cde 85be 7269 65be 3180 1b40 ece4 793f
00000340: aa51 f13f 9dcb 283e a704 76bf 84d9 9c3e
00000350: 67bb 3a3f 36d7 adbe f595 ba3e acb1 fc3f
00000360: 723a 6cbe b06f e9be 87e1 aa3f b7bf b43e
00000370: 1567 31bf 7382 ff3e f982 f1bf 7cd9 f1bd
00000380: bd5e 3b3f f2c2 05bf b838 38bf f4c0 043f
00000390: a592 a6bf c9fa 29bf e06e 18bf 220f 00be
000003a0: ae76 e63e b70a f43e 2b76 d3be 1a4c ac3f
000003b0: 9d52 b83e 8391 c43f 3d66 663d 7fbf 0340
000003c0: c536 27bf 7488 043f 37b9 8bbf d5ca 003f
000003d0: fc00 49be 0086 033f 65d8 2dbf 25d5 033f
000003e0: 62e8 51bd 8ba7 9cbf 2bfd 3fbf c6b0 82bd
000003f0: a2a8 cebf 751c 003f 5fb7 07bf f2d3 c4bf
-0.27821636 -0.9597233 -1.0653905 -0.29664078 -0.06843853 0.48751223 -0.2773182 -0.74242216
-0.6267479 1.5094978 -0.01441599 -0.021235377 0.4388989 -2.5439825 -1.6098399 0.34007144
0.25679952 0.2449481 2.0130053 -0.36030784 1.4088925 2.072679 -2.9779167 -0.29703787
0.36372408 -0.649554 0.6601933 -2.1235244 -1.1909221 0.53751147 0.75502384 0.0037273276
0.30033976 0.680031 0.8330352 -0.5236394 0.06416734 1.8964189 0.3909909 -0.5166844
0.5614236 -0.82210046 0.6598723 -0.3653791 0.5053776 -2.356614 -0.15307876 0.53003025
0.09097287 -0.33964512 0.6502708 1.9983423 1.6087081 -0.3170562 0.7933667 0.25763413
0.80165344 -1.5560099 1.0116984 1.4040824 0.5663113 1.6663712 -0.85809195 0.0025306782
0.8028117 0.29173288 2.2798126 -2.298202 -2.234639 -0.5344331 -0.2877579 -1.1757295
-1.9119672 -1.5328442 -0.22159857 0.21374837 1.9660146 -1.3205184 1.3350137 0.45873484
-0.9007057 -0.9501383 -0.96311593 0.78756016 1.9873656 2.3791084 0.0720664 0.23892589
-0.39353096 0.9066045 -0.51218235 2.2748668 -0.24519077 0.17913795 1.375339 0.5829393
0.54566103 -1.4353747 0.80704653 2.0487888 1.4390328 0.26211312 -0.32368493 0.39980677
-1.0051746 0.21110024 -0.9691893 0.07142137 -0.7535729 1.1238508 1.0104787 1.2697102
0.88394505 0.06700258 0.38095844 -0.7733324 0.054538824 0.66786283 -2.5163174 -0.11268207
0.32186145 0.055107996 -0.7465156 1.1740693 -0.02585288 -0.73998994 -0.61170787 -1.9407854
-0.03300876 0.57120657 2.1405306 -0.021314908 -1.1798526 -0.34475496 0.48290354 -1.4174
-0.38431057 -1.7576485 1.5079896 0.1011221 0.22198609 0.12279293 -0.5276428 0.47549903
0.45076704 0.15856285 0.7527545 0.41608188 -1.3432707 1.6473414 -0.23552342 -0.15158619
-0.72804576 1.0974947 0.6779054 0.60693 1.4686384 0.6767264 0.4770215 -0.8627591
0.42536992 -1.5494251 -1.7409462 -0.7334981 0.16420569 0.9440651 -0.18531913 -0.38023478
-0.16506596 -0.023564046 -0.23134658 0.4285888 0.53560406 -2.004262 1.6233691 0.07147865
-0.13819863 -0.40504503 0.66131294 0.91102356 -0.91949064 0.97933996 0.02197173 -0.6253397
-0.15590139 -0.051411796 0.0046473052 0.20934542 -0.34601372 0.15729557 -0.2535751 -1.6382073
-0.5148224 0.28124818 2.1813345 -0.017280623 1.2584234 -2.526541 1.81386 -0.5094202
0.022749068 -1.0421113 0.822474 -1.4365547 -0.2614621 -0.22403505 2.4296992 0.9761493
1.8853047 0.16483922 -0.9610085 0.306347 0.72942203 -0.33953255 0.36442533 1.9741721
-0.2306917 -0.45593023 1.3350075 0.35302517 -0.69297916 0.49904212 -1.8868095 -0.1180906
0.73191434 -0.5225059 -0.71961546 0.51856923 -1.3013502 -0.6639829 -0.5954418 -0.12505773
0.4501242 0.47664425 -0.41301093 1.3460724 0.3600053 1.5356907 0.056249846 2.058563
-0.65317947 0.5177071 -1.0915898 0.503095 -0.19629282 0.5137634 -0.67908317 0.5149711
-0.05124701 -1.223863 -0.7499568 -0.06381373 -1.6145213 0.5004342 -0.5301418 -1.537718
